{"format": "torch", "nodes": [{"name": "model", "id": 23391980954976, "class_name": "EfficientNet(\n  (conv_stem): Conv2d(6, 48, kernel_size=(3, 3), stride=(2, 2), padding=(1, 1), bias=False)\n  (bn1): BatchNormAct2d(\n    48, eps=1e-05, momentum=0.1, affine=True, track_running_stats=True\n    (drop): Identity()\n    (act): SiLU(inplace=True)\n  )\n  (blocks): Sequential(\n    (0): Sequential(\n      (0): DepthwiseSeparableConv(\n        (conv_dw): Conv2d(48, 48, kernel_size=(3, 3), stride=(1, 1), padding=(1, 1), groups=48, bias=False)\n        (bn1): BatchNormAct2d(\n          48, eps=1e-05, momentum=0.1, affine=True, track_running_stats=True\n          (drop): Identity()\n          (act): SiLU(inplace=True)\n        )\n        (se): SqueezeExcite(\n          (conv_reduce): Conv2d(48, 12, kernel_size=(1, 1), stride=(1, 1))\n          (act1): SiLU(inplace=True)\n          (conv_expand): Conv2d(12, 48, kernel_size=(1, 1), stride=(1, 1))\n          (gate): Sigmoid()\n        )\n        (conv_pw): Conv2d(48, 24, kernel_size=(1, 1), stride=(1, 1), bias=False)\n        (bn2): BatchNormAct2d(\n          24, eps=1e-05, momentum=0.1, affine=True, track_running_stats=True\n          (drop): Identity()\n          (act): Identity()\n        )\n        (drop_path): Identity()\n      )\n      (1): DepthwiseSeparableConv(\n        (conv_dw): Conv2d(24, 24, kernel_size=(3, 3), stride=(1, 1), padding=(1, 1), groups=24, bias=False)\n        (bn1): BatchNormAct2d(\n          24, eps=1e-05, momentum=0.1, affine=True, track_running_stats=True\n          (drop): Identity()\n          (act): SiLU(inplace=True)\n        )\n        (se): SqueezeExcite(\n          (conv_reduce): Conv2d(24, 6, kernel_size=(1, 1), stride=(1, 1))\n          (act1): SiLU(inplace=True)\n          (conv_expand): Conv2d(6, 24, kernel_size=(1, 1), stride=(1, 1))\n          (gate): Sigmoid()\n        )\n        (conv_pw): Conv2d(24, 24, kernel_size=(1, 1), stride=(1, 1), bias=False)\n        (bn2): BatchNormAct2d(\n          24, eps=1e-05, momentum=0.1, affine=True, track_running_stats=True\n          (drop): Identity()\n          (act): Identity()\n        )\n        (drop_path): Identity()\n      )\n    )\n    (1): Sequential(\n      (0): InvertedResidual(\n        (conv_pw): Conv2d(24, 144, kernel_size=(1, 1), stride=(1, 1), bias=False)\n        (bn1): BatchNormAct2d(\n          144, eps=1e-05, momentum=0.1, affine=True, track_running_stats=True\n          (drop): Identity()\n          (act): SiLU(inplace=True)\n        )\n        (conv_dw): Conv2d(144, 144, kernel_size=(3, 3), stride=(2, 2), padding=(1, 1), groups=144, bias=False)\n        (bn2): BatchNormAct2d(\n          144, eps=1e-05, momentum=0.1, affine=True, track_running_stats=True\n          (drop): Identity()\n          (act): SiLU(inplace=True)\n        )\n        (se): SqueezeExcite(\n          (conv_reduce): Conv2d(144, 6, kernel_size=(1, 1), stride=(1, 1))\n          (act1): SiLU(inplace=True)\n          (conv_expand): Conv2d(6, 144, kernel_size=(1, 1), stride=(1, 1))\n          (gate): Sigmoid()\n        )\n        (conv_pwl): Conv2d(144, 32, kernel_size=(1, 1), stride=(1, 1), bias=False)\n        (bn3): BatchNormAct2d(\n          32, eps=1e-05, momentum=0.1, affine=True, track_running_stats=True\n          (drop): Identity()\n          (act): Identity()\n        )\n        (drop_path): Identity()\n      )\n      (1): InvertedResidual(\n        (conv_pw): Conv2d(32, 192, kernel_size=(1, 1), stride=(1, 1), bias=False)\n        (bn1): BatchNormAct2d(\n          192, eps=1e-05, momentum=0.1, affine=True, track_running_stats=True\n          (drop): Identity()\n          (act): SiLU(inplace=True)\n        )\n        (conv_dw): Conv2d(192, 192, kernel_size=(3, 3), stride=(1, 1), padding=(1, 1), groups=192, bias=False)\n        (bn2): BatchNormAct2d(\n          192, eps=1e-05, momentum=0.1, affine=True, track_running_stats=True\n          (drop): Identity()\n          (act): SiLU(inplace=True)\n        )\n        (se): SqueezeExcite(\n          (conv_reduce): Conv2d(192, 8, kernel_size=(1, 1), stride=(1, 1))\n          (act1): SiLU(inplace=True)\n          (conv_expand): Conv2d(8, 192, kernel_size=(1, 1), stride=(1, 1))\n          (gate): Sigmoid()\n        )\n        (conv_pwl): Conv2d(192, 32, kernel_size=(1, 1), stride=(1, 1), bias=False)\n        (bn3): BatchNormAct2d(\n          32, eps=1e-05, momentum=0.1, affine=True, track_running_stats=True\n          (drop): Identity()\n          (act): Identity()\n        )\n        (drop_path): Identity()\n      )\n      (2): InvertedResidual(\n        (conv_pw): Conv2d(32, 192, kernel_size=(1, 1), stride=(1, 1), bias=False)\n        (bn1): BatchNormAct2d(\n          192, eps=1e-05, momentum=0.1, affine=True, track_running_stats=True\n          (drop): Identity()\n          (act): SiLU(inplace=True)\n        )\n        (conv_dw): Conv2d(192, 192, kernel_size=(3, 3), stride=(1, 1), padding=(1, 1), groups=192, bias=False)\n        (bn2): BatchNormAct2d(\n          192, eps=1e-05, momentum=0.1, affine=True, track_running_stats=True\n          (drop): Identity()\n          (act): SiLU(inplace=True)\n        )\n        (se): SqueezeExcite(\n          (conv_reduce): Conv2d(192, 8, kernel_size=(1, 1), stride=(1, 1))\n          (act1): SiLU(inplace=True)\n          (conv_expand): Conv2d(8, 192, kernel_size=(1, 1), stride=(1, 1))\n          (gate): Sigmoid()\n        )\n        (conv_pwl): Conv2d(192, 32, kernel_size=(1, 1), stride=(1, 1), bias=False)\n        (bn3): BatchNormAct2d(\n          32, eps=1e-05, momentum=0.1, affine=True, track_running_stats=True\n          (drop): Identity()\n          (act): Identity()\n        )\n        (drop_path): Identity()\n      )\n      (3): InvertedResidual(\n        (conv_pw): Conv2d(32, 192, kernel_size=(1, 1), stride=(1, 1), bias=False)\n        (bn1): BatchNormAct2d(\n          192, eps=1e-05, momentum=0.1, affine=True, track_running_stats=True\n          (drop): Identity()\n          (act): SiLU(inplace=True)\n        )\n        (conv_dw): Conv2d(192, 192, kernel_size=(3, 3), stride=(1, 1), padding=(1, 1), groups=192, bias=False)\n        (bn2): BatchNormAct2d(\n          192, eps=1e-05, momentum=0.1, affine=True, track_running_stats=True\n          (drop): Identity()\n          (act): SiLU(inplace=True)\n        )\n        (se): SqueezeExcite(\n          (conv_reduce): Conv2d(192, 8, kernel_size=(1, 1), stride=(1, 1))\n          (act1): SiLU(inplace=True)\n          (conv_expand): Conv2d(8, 192, kernel_size=(1, 1), stride=(1, 1))\n          (gate): Sigmoid()\n        )\n        (conv_pwl): Conv2d(192, 32, kernel_size=(1, 1), stride=(1, 1), bias=False)\n        (bn3): BatchNormAct2d(\n          32, eps=1e-05, momentum=0.1, affine=True, track_running_stats=True\n          (drop): Identity()\n          (act): Identity()\n        )\n        (drop_path): Identity()\n      )\n    )\n    (2): Sequential(\n      (0): InvertedResidual(\n        (conv_pw): Conv2d(32, 192, kernel_size=(1, 1), stride=(1, 1), bias=False)\n        (bn1): BatchNormAct2d(\n          192, eps=1e-05, momentum=0.1, affine=True, track_running_stats=True\n          (drop): Identity()\n          (act): SiLU(inplace=True)\n        )\n        (conv_dw): Conv2d(192, 192, kernel_size=(5, 5), stride=(2, 2), padding=(2, 2), groups=192, bias=False)\n        (bn2): BatchNormAct2d(\n          192, eps=1e-05, momentum=0.1, affine=True, track_running_stats=True\n          (drop): Identity()\n          (act): SiLU(inplace=True)\n        )\n        (se): SqueezeExcite(\n          (conv_reduce): Conv2d(192, 8, kernel_size=(1, 1), stride=(1, 1))\n          (act1): SiLU(inplace=True)\n          (conv_expand): Conv2d(8, 192, kernel_size=(1, 1), stride=(1, 1))\n          (gate): Sigmoid()\n        )\n        (conv_pwl): Conv2d(192, 56, kernel_size=(1, 1), stride=(1, 1), bias=False)\n        (bn3): BatchNormAct2d(\n          56, eps=1e-05, momentum=0.1, affine=True, track_running_stats=True\n          (drop): Identity()\n          (act): Identity()\n        )\n        (drop_path): Identity()\n      )\n      (1): InvertedResidual(\n        (conv_pw): Conv2d(56, 336, kernel_size=(1, 1), stride=(1, 1), bias=False)\n        (bn1): BatchNormAct2d(\n          336, eps=1e-05, momentum=0.1, affine=True, track_running_stats=True\n          (drop): Identity()\n          (act): SiLU(inplace=True)\n        )\n        (conv_dw): Conv2d(336, 336, kernel_size=(5, 5), stride=(1, 1), padding=(2, 2), groups=336, bias=False)\n        (bn2): BatchNormAct2d(\n          336, eps=1e-05, momentum=0.1, affine=True, track_running_stats=True\n          (drop): Identity()\n          (act): SiLU(inplace=True)\n        )\n        (se): SqueezeExcite(\n          (conv_reduce): Conv2d(336, 14, kernel_size=(1, 1), stride=(1, 1))\n          (act1): SiLU(inplace=True)\n          (conv_expand): Conv2d(14, 336, kernel_size=(1, 1), stride=(1, 1))\n          (gate): Sigmoid()\n        )\n        (conv_pwl): Conv2d(336, 56, kernel_size=(1, 1), stride=(1, 1), bias=False)\n        (bn3): BatchNormAct2d(\n          56, eps=1e-05, momentum=0.1, affine=True, track_running_stats=True\n          (drop): Identity()\n          (act): Identity()\n        )\n        (drop_path): Identity()\n      )\n      (2): InvertedResidual(\n        (conv_pw): Conv2d(56, 336, kernel_size=(1, 1), stride=(1, 1), bias=False)\n        (bn1): BatchNormAct2d(\n          336, eps=1e-05, momentum=0.1, affine=True, track_running_stats=True\n          (drop): Identity()\n          (act): SiLU(inplace=True)\n        )\n        (conv_dw): Conv2d(336, 336, kernel_size=(5, 5), stride=(1, 1), padding=(2, 2), groups=336, bias=False)\n        (bn2): BatchNormAct2d(\n          336, eps=1e-05, momentum=0.1, affine=True, track_running_stats=True\n          (drop): Identity()\n          (act): SiLU(inplace=True)\n        )\n        (se): SqueezeExcite(\n          (conv_reduce): Conv2d(336, 14, kernel_size=(1, 1), stride=(1, 1))\n          (act1): SiLU(inplace=True)\n          (conv_expand): Conv2d(14, 336, kernel_size=(1, 1), stride=(1, 1))\n          (gate): Sigmoid()\n        )\n        (conv_pwl): Conv2d(336, 56, kernel_size=(1, 1), stride=(1, 1), bias=False)\n        (bn3): BatchNormAct2d(\n          56, eps=1e-05, momentum=0.1, affine=True, track_running_stats=True\n          (drop): Identity()\n          (act): Identity()\n        )\n        (drop_path): Identity()\n      )\n      (3): InvertedResidual(\n        (conv_pw): Conv2d(56, 336, kernel_size=(1, 1), stride=(1, 1), bias=False)\n        (bn1): BatchNormAct2d(\n          336, eps=1e-05, momentum=0.1, affine=True, track_running_stats=True\n          (drop): Identity()\n          (act): SiLU(inplace=True)\n        )\n        (conv_dw): Conv2d(336, 336, kernel_size=(5, 5), stride=(1, 1), padding=(2, 2), groups=336, bias=False)\n        (bn2): BatchNormAct2d(\n          336, eps=1e-05, momentum=0.1, affine=True, track_running_stats=True\n          (drop): Identity()\n          (act): SiLU(inplace=True)\n        )\n        (se): SqueezeExcite(\n          (conv_reduce): Conv2d(336, 14, kernel_size=(1, 1), stride=(1, 1))\n          (act1): SiLU(inplace=True)\n          (conv_expand): Conv2d(14, 336, kernel_size=(1, 1), stride=(1, 1))\n          (gate): Sigmoid()\n        )\n        (conv_pwl): Conv2d(336, 56, kernel_size=(1, 1), stride=(1, 1), bias=False)\n        (bn3): BatchNormAct2d(\n          56, eps=1e-05, momentum=0.1, affine=True, track_running_stats=True\n          (drop): Identity()\n          (act): Identity()\n        )\n        (drop_path): Identity()\n      )\n    )\n    (3): Sequential(\n      (0): InvertedResidual(\n        (conv_pw): Conv2d(56, 336, kernel_size=(1, 1), stride=(1, 1), bias=False)\n        (bn1): BatchNormAct2d(\n          336, eps=1e-05, momentum=0.1, affine=True, track_running_stats=True\n          (drop): Identity()\n          (act): SiLU(inplace=True)\n        )\n        (conv_dw): Conv2d(336, 336, kernel_size=(3, 3), stride=(2, 2), padding=(1, 1), groups=336, bias=False)\n        (bn2): BatchNormAct2d(\n          336, eps=1e-05, momentum=0.1, affine=True, track_running_stats=True\n          (drop): Identity()\n          (act): SiLU(inplace=True)\n        )\n        (se): SqueezeExcite(\n          (conv_reduce): Conv2d(336, 14, kernel_size=(1, 1), stride=(1, 1))\n          (act1): SiLU(inplace=True)\n          (conv_expand): Conv2d(14, 336, kernel_size=(1, 1), stride=(1, 1))\n          (gate): Sigmoid()\n        )\n        (conv_pwl): Conv2d(336, 112, kernel_size=(1, 1), stride=(1, 1), bias=False)\n        (bn3): BatchNormAct2d(\n          112, eps=1e-05, momentum=0.1, affine=True, track_running_stats=True\n          (drop): Identity()\n          (act): Identity()\n        )\n        (drop_path): Identity()\n      )\n      (1): InvertedResidual(\n        (conv_pw): Conv2d(112, 672, kernel_size=(1, 1), stride=(1, 1), bias=False)\n        (bn1): BatchNormAct2d(\n          672, eps=1e-05, momentum=0.1, affine=True, track_running_stats=True\n          (drop): Identity()\n          (act): SiLU(inplace=True)\n        )\n        (conv_dw): Conv2d(672, 672, kernel_size=(3, 3), stride=(1, 1), padding=(1, 1), groups=672, bias=False)\n        (bn2): BatchNormAct2d(\n          672, eps=1e-05, momentum=0.1, affine=True, track_running_stats=True\n          (drop): Identity()\n          (act): SiLU(inplace=True)\n        )\n        (se): SqueezeExcite(\n          (conv_reduce): Conv2d(672, 28, kernel_size=(1, 1), stride=(1, 1))\n          (act1): SiLU(inplace=True)\n          (conv_expand): Conv2d(28, 672, kernel_size=(1, 1), stride=(1, 1))\n          (gate): Sigmoid()\n        )\n        (conv_pwl): Conv2d(672, 112, kernel_size=(1, 1), stride=(1, 1), bias=False)\n        (bn3): BatchNormAct2d(\n          112, eps=1e-05, momentum=0.1, affine=True, track_running_stats=True\n          (drop): Identity()\n          (act): Identity()\n        )\n        (drop_path): Identity()\n      )\n      (2): InvertedResidual(\n        (conv_pw): Conv2d(112, 672, kernel_size=(1, 1), stride=(1, 1), bias=False)\n        (bn1): BatchNormAct2d(\n          672, eps=1e-05, momentum=0.1, affine=True, track_running_stats=True\n          (drop): Identity()\n          (act): SiLU(inplace=True)\n        )\n        (conv_dw): Conv2d(672, 672, kernel_size=(3, 3), stride=(1, 1), padding=(1, 1), groups=672, bias=False)\n        (bn2): BatchNormAct2d(\n          672, eps=1e-05, momentum=0.1, affine=True, track_running_stats=True\n          (drop): Identity()\n          (act): SiLU(inplace=True)\n        )\n        (se): SqueezeExcite(\n          (conv_reduce): Conv2d(672, 28, kernel_size=(1, 1), stride=(1, 1))\n          (act1): SiLU(inplace=True)\n          (conv_expand): Conv2d(28, 672, kernel_size=(1, 1), stride=(1, 1))\n          (gate): Sigmoid()\n        )\n        (conv_pwl): Conv2d(672, 112, kernel_size=(1, 1), stride=(1, 1), bias=False)\n        (bn3): BatchNormAct2d(\n          112, eps=1e-05, momentum=0.1, affine=True, track_running_stats=True\n          (drop): Identity()\n          (act): Identity()\n        )\n        (drop_path): Identity()\n      )\n      (3): InvertedResidual(\n        (conv_pw): Conv2d(112, 672, kernel_size=(1, 1), stride=(1, 1), bias=False)\n        (bn1): BatchNormAct2d(\n          672, eps=1e-05, momentum=0.1, affine=True, track_running_stats=True\n          (drop): Identity()\n          (act): SiLU(inplace=True)\n        )\n        (conv_dw): Conv2d(672, 672, kernel_size=(3, 3), stride=(1, 1), padding=(1, 1), groups=672, bias=False)\n        (bn2): BatchNormAct2d(\n          672, eps=1e-05, momentum=0.1, affine=True, track_running_stats=True\n          (drop): Identity()\n          (act): SiLU(inplace=True)\n        )\n        (se): SqueezeExcite(\n          (conv_reduce): Conv2d(672, 28, kernel_size=(1, 1), stride=(1, 1))\n          (act1): SiLU(inplace=True)\n          (conv_expand): Conv2d(28, 672, kernel_size=(1, 1), stride=(1, 1))\n          (gate): Sigmoid()\n        )\n        (conv_pwl): Conv2d(672, 112, kernel_size=(1, 1), stride=(1, 1), bias=False)\n        (bn3): BatchNormAct2d(\n          112, eps=1e-05, momentum=0.1, affine=True, track_running_stats=True\n          (drop): Identity()\n          (act): Identity()\n        )\n        (drop_path): Identity()\n      )\n      (4): InvertedResidual(\n        (conv_pw): Conv2d(112, 672, kernel_size=(1, 1), stride=(1, 1), bias=False)\n        (bn1): BatchNormAct2d(\n          672, eps=1e-05, momentum=0.1, affine=True, track_running_stats=True\n          (drop): Identity()\n          (act): SiLU(inplace=True)\n        )\n        (conv_dw): Conv2d(672, 672, kernel_size=(3, 3), stride=(1, 1), padding=(1, 1), groups=672, bias=False)\n        (bn2): BatchNormAct2d(\n          672, eps=1e-05, momentum=0.1, affine=True, track_running_stats=True\n          (drop): Identity()\n          (act): SiLU(inplace=True)\n        )\n        (se): SqueezeExcite(\n          (conv_reduce): Conv2d(672, 28, kernel_size=(1, 1), stride=(1, 1))\n          (act1): SiLU(inplace=True)\n          (conv_expand): Conv2d(28, 672, kernel_size=(1, 1), stride=(1, 1))\n          (gate): Sigmoid()\n        )\n        (conv_pwl): Conv2d(672, 112, kernel_size=(1, 1), stride=(1, 1), bias=False)\n        (bn3): BatchNormAct2d(\n          112, eps=1e-05, momentum=0.1, affine=True, track_running_stats=True\n          (drop): Identity()\n          (act): Identity()\n        )\n        (drop_path): Identity()\n      )\n      (5): InvertedResidual(\n        (conv_pw): Conv2d(112, 672, kernel_size=(1, 1), stride=(1, 1), bias=False)\n        (bn1): BatchNormAct2d(\n          672, eps=1e-05, momentum=0.1, affine=True, track_running_stats=True\n          (drop): Identity()\n          (act): SiLU(inplace=True)\n        )\n        (conv_dw): Conv2d(672, 672, kernel_size=(3, 3), stride=(1, 1), padding=(1, 1), groups=672, bias=False)\n        (bn2): BatchNormAct2d(\n          672, eps=1e-05, momentum=0.1, affine=True, track_running_stats=True\n          (drop): Identity()\n          (act): SiLU(inplace=True)\n        )\n        (se): SqueezeExcite(\n          (conv_reduce): Conv2d(672, 28, kernel_size=(1, 1), stride=(1, 1))\n          (act1): SiLU(inplace=True)\n          (conv_expand): Conv2d(28, 672, kernel_size=(1, 1), stride=(1, 1))\n          (gate): Sigmoid()\n        )\n        (conv_pwl): Conv2d(672, 112, kernel_size=(1, 1), stride=(1, 1), bias=False)\n        (bn3): BatchNormAct2d(\n          112, eps=1e-05, momentum=0.1, affine=True, track_running_stats=True\n          (drop): Identity()\n          (act): Identity()\n        )\n        (drop_path): Identity()\n      )\n    )\n    (4): Sequential(\n      (0): InvertedResidual(\n        (conv_pw): Conv2d(112, 672, kernel_size=(1, 1), stride=(1, 1), bias=False)\n        (bn1): BatchNormAct2d(\n          672, eps=1e-05, momentum=0.1, affine=True, track_running_stats=True\n          (drop): Identity()\n          (act): SiLU(inplace=True)\n        )\n        (conv_dw): Conv2d(672, 672, kernel_size=(5, 5), stride=(1, 1), padding=(2, 2), groups=672, bias=False)\n        (bn2): BatchNormAct2d(\n          672, eps=1e-05, momentum=0.1, affine=True, track_running_stats=True\n          (drop): Identity()\n          (act): SiLU(inplace=True)\n        )\n        (se): SqueezeExcite(\n          (conv_reduce): Conv2d(672, 28, kernel_size=(1, 1), stride=(1, 1))\n          (act1): SiLU(inplace=True)\n          (conv_expand): Conv2d(28, 672, kernel_size=(1, 1), stride=(1, 1))\n          (gate): Sigmoid()\n        )\n        (conv_pwl): Conv2d(672, 160, kernel_size=(1, 1), stride=(1, 1), bias=False)\n        (bn3): BatchNormAct2d(\n          160, eps=1e-05, momentum=0.1, affine=True, track_running_stats=True\n          (drop): Identity()\n          (act): Identity()\n        )\n        (drop_path): Identity()\n      )\n      (1): InvertedResidual(\n        (conv_pw): Conv2d(160, 960, kernel_size=(1, 1), stride=(1, 1), bias=False)\n        (bn1): BatchNormAct2d(\n          960, eps=1e-05, momentum=0.1, affine=True, track_running_stats=True\n          (drop): Identity()\n          (act): SiLU(inplace=True)\n        )\n        (conv_dw): Conv2d(960, 960, kernel_size=(5, 5), stride=(1, 1), padding=(2, 2), groups=960, bias=False)\n        (bn2): BatchNormAct2d(\n          960, eps=1e-05, momentum=0.1, affine=True, track_running_stats=True\n          (drop): Identity()\n          (act): SiLU(inplace=True)\n        )\n        (se): SqueezeExcite(\n          (conv_reduce): Conv2d(960, 40, kernel_size=(1, 1), stride=(1, 1))\n          (act1): SiLU(inplace=True)\n          (conv_expand): Conv2d(40, 960, kernel_size=(1, 1), stride=(1, 1))\n          (gate): Sigmoid()\n        )\n        (conv_pwl): Conv2d(960, 160, kernel_size=(1, 1), stride=(1, 1), bias=False)\n        (bn3): BatchNormAct2d(\n          160, eps=1e-05, momentum=0.1, affine=True, track_running_stats=True\n          (drop): Identity()\n          (act): Identity()\n        )\n        (drop_path): Identity()\n      )\n      (2): InvertedResidual(\n        (conv_pw): Conv2d(160, 960, kernel_size=(1, 1), stride=(1, 1), bias=False)\n        (bn1): BatchNormAct2d(\n          960, eps=1e-05, momentum=0.1, affine=True, track_running_stats=True\n          (drop): Identity()\n          (act): SiLU(inplace=True)\n        )\n        (conv_dw): Conv2d(960, 960, kernel_size=(5, 5), stride=(1, 1), padding=(2, 2), groups=960, bias=False)\n        (bn2): BatchNormAct2d(\n          960, eps=1e-05, momentum=0.1, affine=True, track_running_stats=True\n          (drop): Identity()\n          (act): SiLU(inplace=True)\n        )\n        (se): SqueezeExcite(\n          (conv_reduce): Conv2d(960, 40, kernel_size=(1, 1), stride=(1, 1))\n          (act1): SiLU(inplace=True)\n          (conv_expand): Conv2d(40, 960, kernel_size=(1, 1), stride=(1, 1))\n          (gate): Sigmoid()\n        )\n        (conv_pwl): Conv2d(960, 160, kernel_size=(1, 1), stride=(1, 1), bias=False)\n        (bn3): BatchNormAct2d(\n          160, eps=1e-05, momentum=0.1, affine=True, track_running_stats=True\n          (drop): Identity()\n          (act): Identity()\n        )\n        (drop_path): Identity()\n      )\n      (3): InvertedResidual(\n        (conv_pw): Conv2d(160, 960, kernel_size=(1, 1), stride=(1, 1), bias=False)\n        (bn1): BatchNormAct2d(\n          960, eps=1e-05, momentum=0.1, affine=True, track_running_stats=True\n          (drop): Identity()\n          (act): SiLU(inplace=True)\n        )\n        (conv_dw): Conv2d(960, 960, kernel_size=(5, 5), stride=(1, 1), padding=(2, 2), groups=960, bias=False)\n        (bn2): BatchNormAct2d(\n          960, eps=1e-05, momentum=0.1, affine=True, track_running_stats=True\n          (drop): Identity()\n          (act): SiLU(inplace=True)\n        )\n        (se): SqueezeExcite(\n          (conv_reduce): Conv2d(960, 40, kernel_size=(1, 1), stride=(1, 1))\n          (act1): SiLU(inplace=True)\n          (conv_expand): Conv2d(40, 960, kernel_size=(1, 1), stride=(1, 1))\n          (gate): Sigmoid()\n        )\n        (conv_pwl): Conv2d(960, 160, kernel_size=(1, 1), stride=(1, 1), bias=False)\n        (bn3): BatchNormAct2d(\n          160, eps=1e-05, momentum=0.1, affine=True, track_running_stats=True\n          (drop): Identity()\n          (act): Identity()\n        )\n        (drop_path): Identity()\n      )\n      (4): InvertedResidual(\n        (conv_pw): Conv2d(160, 960, kernel_size=(1, 1), stride=(1, 1), bias=False)\n        (bn1): BatchNormAct2d(\n          960, eps=1e-05, momentum=0.1, affine=True, track_running_stats=True\n          (drop): Identity()\n          (act): SiLU(inplace=True)\n        )\n        (conv_dw): Conv2d(960, 960, kernel_size=(5, 5), stride=(1, 1), padding=(2, 2), groups=960, bias=False)\n        (bn2): BatchNormAct2d(\n          960, eps=1e-05, momentum=0.1, affine=True, track_running_stats=True\n          (drop): Identity()\n          (act): SiLU(inplace=True)\n        )\n        (se): SqueezeExcite(\n          (conv_reduce): Conv2d(960, 40, kernel_size=(1, 1), stride=(1, 1))\n          (act1): SiLU(inplace=True)\n          (conv_expand): Conv2d(40, 960, kernel_size=(1, 1), stride=(1, 1))\n          (gate): Sigmoid()\n        )\n        (conv_pwl): Conv2d(960, 160, kernel_size=(1, 1), stride=(1, 1), bias=False)\n        (bn3): BatchNormAct2d(\n          160, eps=1e-05, momentum=0.1, affine=True, track_running_stats=True\n          (drop): Identity()\n          (act): Identity()\n        )\n        (drop_path): Identity()\n      )\n      (5): InvertedResidual(\n        (conv_pw): Conv2d(160, 960, kernel_size=(1, 1), stride=(1, 1), bias=False)\n        (bn1): BatchNormAct2d(\n          960, eps=1e-05, momentum=0.1, affine=True, track_running_stats=True\n          (drop): Identity()\n          (act): SiLU(inplace=True)\n        )\n        (conv_dw): Conv2d(960, 960, kernel_size=(5, 5), stride=(1, 1), padding=(2, 2), groups=960, bias=False)\n        (bn2): BatchNormAct2d(\n          960, eps=1e-05, momentum=0.1, affine=True, track_running_stats=True\n          (drop): Identity()\n          (act): SiLU(inplace=True)\n        )\n        (se): SqueezeExcite(\n          (conv_reduce): Conv2d(960, 40, kernel_size=(1, 1), stride=(1, 1))\n          (act1): SiLU(inplace=True)\n          (conv_expand): Conv2d(40, 960, kernel_size=(1, 1), stride=(1, 1))\n          (gate): Sigmoid()\n        )\n        (conv_pwl): Conv2d(960, 160, kernel_size=(1, 1), stride=(1, 1), bias=False)\n        (bn3): BatchNormAct2d(\n          160, eps=1e-05, momentum=0.1, affine=True, track_running_stats=True\n          (drop): Identity()\n          (act): Identity()\n        )\n        (drop_path): Identity()\n      )\n    )\n    (5): Sequential(\n      (0): InvertedResidual(\n        (conv_pw): Conv2d(160, 960, kernel_size=(1, 1), stride=(1, 1), bias=False)\n        (bn1): BatchNormAct2d(\n          960, eps=1e-05, momentum=0.1, affine=True, track_running_stats=True\n          (drop): Identity()\n          (act): SiLU(inplace=True)\n        )\n        (conv_dw): Conv2d(960, 960, kernel_size=(5, 5), stride=(2, 2), padding=(2, 2), groups=960, bias=False)\n        (bn2): BatchNormAct2d(\n          960, eps=1e-05, momentum=0.1, affine=True, track_running_stats=True\n          (drop): Identity()\n          (act): SiLU(inplace=True)\n        )\n        (se): SqueezeExcite(\n          (conv_reduce): Conv2d(960, 40, kernel_size=(1, 1), stride=(1, 1))\n          (act1): SiLU(inplace=True)\n          (conv_expand): Conv2d(40, 960, kernel_size=(1, 1), stride=(1, 1))\n          (gate): Sigmoid()\n        )\n        (conv_pwl): Conv2d(960, 272, kernel_size=(1, 1), stride=(1, 1), bias=False)\n        (bn3): BatchNormAct2d(\n          272, eps=1e-05, momentum=0.1, affine=True, track_running_stats=True\n          (drop): Identity()\n          (act): Identity()\n        )\n        (drop_path): Identity()\n      )\n      (1): InvertedResidual(\n        (conv_pw): Conv2d(272, 1632, kernel_size=(1, 1), stride=(1, 1), bias=False)\n        (bn1): BatchNormAct2d(\n          1632, eps=1e-05, momentum=0.1, affine=True, track_running_stats=True\n          (drop): Identity()\n          (act): SiLU(inplace=True)\n        )\n        (conv_dw): Conv2d(1632, 1632, kernel_size=(5, 5), stride=(1, 1), padding=(2, 2), groups=1632, bias=False)\n        (bn2): BatchNormAct2d(\n          1632, eps=1e-05, momentum=0.1, affine=True, track_running_stats=True\n          (drop): Identity()\n          (act): SiLU(inplace=True)\n        )\n        (se): SqueezeExcite(\n          (conv_reduce): Conv2d(1632, 68, kernel_size=(1, 1), stride=(1, 1))\n          (act1): SiLU(inplace=True)\n          (conv_expand): Conv2d(68, 1632, kernel_size=(1, 1), stride=(1, 1))\n          (gate): Sigmoid()\n        )\n        (conv_pwl): Conv2d(1632, 272, kernel_size=(1, 1), stride=(1, 1), bias=False)\n        (bn3): BatchNormAct2d(\n          272, eps=1e-05, momentum=0.1, affine=True, track_running_stats=True\n          (drop): Identity()\n          (act): Identity()\n        )\n        (drop_path): Identity()\n      )\n      (2): InvertedResidual(\n        (conv_pw): Conv2d(272, 1632, kernel_size=(1, 1), stride=(1, 1), bias=False)\n        (bn1): BatchNormAct2d(\n          1632, eps=1e-05, momentum=0.1, affine=True, track_running_stats=True\n          (drop): Identity()\n          (act): SiLU(inplace=True)\n        )\n        (conv_dw): Conv2d(1632, 1632, kernel_size=(5, 5), stride=(1, 1), padding=(2, 2), groups=1632, bias=False)\n        (bn2): BatchNormAct2d(\n          1632, eps=1e-05, momentum=0.1, affine=True, track_running_stats=True\n          (drop): Identity()\n          (act): SiLU(inplace=True)\n        )\n        (se): SqueezeExcite(\n          (conv_reduce): Conv2d(1632, 68, kernel_size=(1, 1), stride=(1, 1))\n          (act1): SiLU(inplace=True)\n          (conv_expand): Conv2d(68, 1632, kernel_size=(1, 1), stride=(1, 1))\n          (gate): Sigmoid()\n        )\n        (conv_pwl): Conv2d(1632, 272, kernel_size=(1, 1), stride=(1, 1), bias=False)\n        (bn3): BatchNormAct2d(\n          272, eps=1e-05, momentum=0.1, affine=True, track_running_stats=True\n          (drop): Identity()\n          (act): Identity()\n        )\n        (drop_path): Identity()\n      )\n      (3): InvertedResidual(\n        (conv_pw): Conv2d(272, 1632, kernel_size=(1, 1), stride=(1, 1), bias=False)\n        (bn1): BatchNormAct2d(\n          1632, eps=1e-05, momentum=0.1, affine=True, track_running_stats=True\n          (drop): Identity()\n          (act): SiLU(inplace=True)\n        )\n        (conv_dw): Conv2d(1632, 1632, kernel_size=(5, 5), stride=(1, 1), padding=(2, 2), groups=1632, bias=False)\n        (bn2): BatchNormAct2d(\n          1632, eps=1e-05, momentum=0.1, affine=True, track_running_stats=True\n          (drop): Identity()\n          (act): SiLU(inplace=True)\n        )\n        (se): SqueezeExcite(\n          (conv_reduce): Conv2d(1632, 68, kernel_size=(1, 1), stride=(1, 1))\n          (act1): SiLU(inplace=True)\n          (conv_expand): Conv2d(68, 1632, kernel_size=(1, 1), stride=(1, 1))\n          (gate): Sigmoid()\n        )\n        (conv_pwl): Conv2d(1632, 272, kernel_size=(1, 1), stride=(1, 1), bias=False)\n        (bn3): BatchNormAct2d(\n          272, eps=1e-05, momentum=0.1, affine=True, track_running_stats=True\n          (drop): Identity()\n          (act): Identity()\n        )\n        (drop_path): Identity()\n      )\n      (4): InvertedResidual(\n        (conv_pw): Conv2d(272, 1632, kernel_size=(1, 1), stride=(1, 1), bias=False)\n        (bn1): BatchNormAct2d(\n          1632, eps=1e-05, momentum=0.1, affine=True, track_running_stats=True\n          (drop): Identity()\n          (act): SiLU(inplace=True)\n        )\n        (conv_dw): Conv2d(1632, 1632, kernel_size=(5, 5), stride=(1, 1), padding=(2, 2), groups=1632, bias=False)\n        (bn2): BatchNormAct2d(\n          1632, eps=1e-05, momentum=0.1, affine=True, track_running_stats=True\n          (drop): Identity()\n          (act): SiLU(inplace=True)\n        )\n        (se): SqueezeExcite(\n          (conv_reduce): Conv2d(1632, 68, kernel_size=(1, 1), stride=(1, 1))\n          (act1): SiLU(inplace=True)\n          (conv_expand): Conv2d(68, 1632, kernel_size=(1, 1), stride=(1, 1))\n          (gate): Sigmoid()\n        )\n        (conv_pwl): Conv2d(1632, 272, kernel_size=(1, 1), stride=(1, 1), bias=False)\n        (bn3): BatchNormAct2d(\n          272, eps=1e-05, momentum=0.1, affine=True, track_running_stats=True\n          (drop): Identity()\n          (act): Identity()\n        )\n        (drop_path): Identity()\n      )\n      (5): InvertedResidual(\n        (conv_pw): Conv2d(272, 1632, kernel_size=(1, 1), stride=(1, 1), bias=False)\n        (bn1): BatchNormAct2d(\n          1632, eps=1e-05, momentum=0.1, affine=True, track_running_stats=True\n          (drop): Identity()\n          (act): SiLU(inplace=True)\n        )\n        (conv_dw): Conv2d(1632, 1632, kernel_size=(5, 5), stride=(1, 1), padding=(2, 2), groups=1632, bias=False)\n        (bn2): BatchNormAct2d(\n          1632, eps=1e-05, momentum=0.1, affine=True, track_running_stats=True\n          (drop): Identity()\n          (act): SiLU(inplace=True)\n        )\n        (se): SqueezeExcite(\n          (conv_reduce): Conv2d(1632, 68, kernel_size=(1, 1), stride=(1, 1))\n          (act1): SiLU(inplace=True)\n          (conv_expand): Conv2d(68, 1632, kernel_size=(1, 1), stride=(1, 1))\n          (gate): Sigmoid()\n        )\n        (conv_pwl): Conv2d(1632, 272, kernel_size=(1, 1), stride=(1, 1), bias=False)\n        (bn3): BatchNormAct2d(\n          272, eps=1e-05, momentum=0.1, affine=True, track_running_stats=True\n          (drop): Identity()\n          (act): Identity()\n        )\n        (drop_path): Identity()\n      )\n      (6): InvertedResidual(\n        (conv_pw): Conv2d(272, 1632, kernel_size=(1, 1), stride=(1, 1), bias=False)\n        (bn1): BatchNormAct2d(\n          1632, eps=1e-05, momentum=0.1, affine=True, track_running_stats=True\n          (drop): Identity()\n          (act): SiLU(inplace=True)\n        )\n        (conv_dw): Conv2d(1632, 1632, kernel_size=(5, 5), stride=(1, 1), padding=(2, 2), groups=1632, bias=False)\n        (bn2): BatchNormAct2d(\n          1632, eps=1e-05, momentum=0.1, affine=True, track_running_stats=True\n          (drop): Identity()\n          (act): SiLU(inplace=True)\n        )\n        (se): SqueezeExcite(\n          (conv_reduce): Conv2d(1632, 68, kernel_size=(1, 1), stride=(1, 1))\n          (act1): SiLU(inplace=True)\n          (conv_expand): Conv2d(68, 1632, kernel_size=(1, 1), stride=(1, 1))\n          (gate): Sigmoid()\n        )\n        (conv_pwl): Conv2d(1632, 272, kernel_size=(1, 1), stride=(1, 1), bias=False)\n        (bn3): BatchNormAct2d(\n          272, eps=1e-05, momentum=0.1, affine=True, track_running_stats=True\n          (drop): Identity()\n          (act): Identity()\n        )\n        (drop_path): Identity()\n      )\n      (7): InvertedResidual(\n        (conv_pw): Conv2d(272, 1632, kernel_size=(1, 1), stride=(1, 1), bias=False)\n        (bn1): BatchNormAct2d(\n          1632, eps=1e-05, momentum=0.1, affine=True, track_running_stats=True\n          (drop): Identity()\n          (act): SiLU(inplace=True)\n        )\n        (conv_dw): Conv2d(1632, 1632, kernel_size=(5, 5), stride=(1, 1), padding=(2, 2), groups=1632, bias=False)\n        (bn2): BatchNormAct2d(\n          1632, eps=1e-05, momentum=0.1, affine=True, track_running_stats=True\n          (drop): Identity()\n          (act): SiLU(inplace=True)\n        )\n        (se): SqueezeExcite(\n          (conv_reduce): Conv2d(1632, 68, kernel_size=(1, 1), stride=(1, 1))\n          (act1): SiLU(inplace=True)\n          (conv_expand): Conv2d(68, 1632, kernel_size=(1, 1), stride=(1, 1))\n          (gate): Sigmoid()\n        )\n        (conv_pwl): Conv2d(1632, 272, kernel_size=(1, 1), stride=(1, 1), bias=False)\n        (bn3): BatchNormAct2d(\n          272, eps=1e-05, momentum=0.1, affine=True, track_running_stats=True\n          (drop): Identity()\n          (act): Identity()\n        )\n        (drop_path): Identity()\n      )\n    )\n    (6): Sequential(\n      (0): InvertedResidual(\n        (conv_pw): Conv2d(272, 1632, kernel_size=(1, 1), stride=(1, 1), bias=False)\n        (bn1): BatchNormAct2d(\n          1632, eps=1e-05, momentum=0.1, affine=True, track_running_stats=True\n          (drop): Identity()\n          (act): SiLU(inplace=True)\n        )\n        (conv_dw): Conv2d(1632, 1632, kernel_size=(3, 3), stride=(1, 1), padding=(1, 1), groups=1632, bias=False)\n        (bn2): BatchNormAct2d(\n          1632, eps=1e-05, momentum=0.1, affine=True, track_running_stats=True\n          (drop): Identity()\n          (act): SiLU(inplace=True)\n        )\n        (se): SqueezeExcite(\n          (conv_reduce): Conv2d(1632, 68, kernel_size=(1, 1), stride=(1, 1))\n          (act1): SiLU(inplace=True)\n          (conv_expand): Conv2d(68, 1632, kernel_size=(1, 1), stride=(1, 1))\n          (gate): Sigmoid()\n        )\n        (conv_pwl): Conv2d(1632, 448, kernel_size=(1, 1), stride=(1, 1), bias=False)\n        (bn3): BatchNormAct2d(\n          448, eps=1e-05, momentum=0.1, affine=True, track_running_stats=True\n          (drop): Identity()\n          (act): Identity()\n        )\n        (drop_path): Identity()\n      )\n      (1): InvertedResidual(\n        (conv_pw): Conv2d(448, 2688, kernel_size=(1, 1), stride=(1, 1), bias=False)\n        (bn1): BatchNormAct2d(\n          2688, eps=1e-05, momentum=0.1, affine=True, track_running_stats=True\n          (drop): Identity()\n          (act): SiLU(inplace=True)\n        )\n        (conv_dw): Conv2d(2688, 2688, kernel_size=(3, 3), stride=(1, 1), padding=(1, 1), groups=2688, bias=False)\n        (bn2): BatchNormAct2d(\n          2688, eps=1e-05, momentum=0.1, affine=True, track_running_stats=True\n          (drop): Identity()\n          (act): SiLU(inplace=True)\n        )\n        (se): SqueezeExcite(\n          (conv_reduce): Conv2d(2688, 112, kernel_size=(1, 1), stride=(1, 1))\n          (act1): SiLU(inplace=True)\n          (conv_expand): Conv2d(112, 2688, kernel_size=(1, 1), stride=(1, 1))\n          (gate): Sigmoid()\n        )\n        (conv_pwl): Conv2d(2688, 448, kernel_size=(1, 1), stride=(1, 1), bias=False)\n        (bn3): BatchNormAct2d(\n          448, eps=1e-05, momentum=0.1, affine=True, track_running_stats=True\n          (drop): Identity()\n          (act): Identity()\n        )\n        (drop_path): Identity()\n      )\n    )\n  )\n  (conv_head): Conv2d(448, 1792, kernel_size=(1, 1), stride=(1, 1), bias=False)\n  (bn2): BatchNormAct2d(\n    1792, eps=1e-05, momentum=0.1, affine=True, track_running_stats=True\n    (drop): Identity()\n    (act): SiLU(inplace=True)\n  )\n  (global_pool): SelectAdaptivePool2d (pool_type=avg, flatten=Flatten(start_dim=1, end_dim=-1))\n  (classifier): Linear(in_features=1792, out_features=4, bias=True)\n)", "parameters": [["conv_stem.weight", [48, 6, 3, 3]], ["bn1.weight", [48]], ["bn1.bias", [48]], ["blocks.0.0.conv_dw.weight", [48, 1, 3, 3]], ["blocks.0.0.bn1.weight", [48]], ["blocks.0.0.bn1.bias", [48]], ["blocks.0.0.se.conv_reduce.weight", [12, 48, 1, 1]], ["blocks.0.0.se.conv_reduce.bias", [12]], ["blocks.0.0.se.conv_expand.weight", [48, 12, 1, 1
…
